…
    "g = make_generator_model()\n",
    "noise = tf.random.normal([1, 100])\n",
    "generated_image = g(noise, training=False)\n"
   ]
  },
  {
   "cell_type": "code",
   "execution_count": 7,
   "id": "overhead-drilling",
   "metadata": {},
   "outputs": [
    {
     "name": "stdout",
     "output_type": "stream",
     "text": [
      "Model: \"sequential\"\n",
      "_________________________________________________________________\n",
      "Layer (type)                 Output Shape              Param #   \n",
      "=================================================================\n",
      "dense (Dense)                (None, 12544)             1254400   \n",
      "_________________________________________________________________\n",
      "batch_normalization (BatchNo (None, 12544)             50176     \n",
      "_________________________________________________________________\n",
      "leaky_re_lu (LeakyReLU)      (None, 12544)             0         \n",
      "_________________________________________________________________\n",
      "reshape (Reshape)            (None, 7, 7, 256)         0         \n",
      "_________________________________________________________________\n",
      "conv2d_transpose (Conv2DTran (None, 7, 7, 128)         819200    \n",
      "_________________________________________________________________\n",
      "batch_normalization_1 (Batch (None, 7, 7, 128)         512       \n",
      "_________________________________________________________________\n",
      "leaky_re_lu_1 (LeakyReLU)    (None, 7, 7, 128)         0         \n",
      "_________________________________________________________________\n",
      "conv2d_transpose_1 (Conv2DTr (None, 14, 14, 64)        204800    \n",
      "_________________________________________________________________\n",
      "batch_normalization_2 (Batch (None, 14, 14, 64)        256       \n",
      "_________________________________________________________________\n",
      "leaky_re_lu_2 (LeakyReLU)    (None, 14, 14, 64)        0         \n",
      "_________________________________________________________________\n",
      "conv2d_transpose_2 (Conv2DTr (None, 28, 28, 1)         1600      \n",
      "=================================================================\n",
      "Total params: 2,330,944\n",
      "Trainable params: 2,305,472\n",
      "Non-trainable params: 25,472\n",
      "_________________________________________________________________\n"
     ]
    }
   ],
   "source": [
    "g.summary()"
   ]
  },
  {
   "cell_type": "markdown",
   "id": "encouraging-salvation",
…
    "gan_adam = tf.keras.optimizers.Adam(lr=0.0001, beta_1=0.9)    \n",
    "gan.compile(loss=loss, optimizer=gan_adam, metrics=['accuracy'])"
   ]
  },
  {
   "cell_type": "code",
   "execution_count": 10,
   "id": "sophisticated-waterproof",
   "metadata": {},
   "outputs": [
    {
     "name": "stdout",
     "output_type": "stream",
     "text": [
      "Model: \"sequential\"\n",
      "_________________________________________________________________\n",
      "Layer (type)                 Output Shape              Param #   \n",
      "=================================================================\n",
      "dense (Dense)                (None, 12544)             1254400   \n",
      "_________________________________________________________________\n",
      "batch_normalization (BatchNo (None, 12544)             50176     \n",
      "_________________________________________________________________\n",
      "leaky_re_lu (LeakyReLU)      (None, 12544)             0         \n",
      "_________________________________________________________________\n",
      "reshape (Reshape)            (None, 7, 7, 256)         0         \n",
      "_________________________________________________________________\n",
      "conv2d_transpose (Conv2DTran (None, 7, 7, 128)         819200    \n",
      "_________________________________________________________________\n",
      "batch_normalization_1 (Batch (None, 7, 7, 128)         512       \n",
      "_________________________________________________________________\n",
      "leaky_re_lu_1 (LeakyReLU)    (None, 7, 7, 128)         0         \n",
      "_________________________________________________________________\n",
      "conv2d_transpose_1 (Conv2DTr (None, 14, 14, 64)        204800    \n",
      "_________________________________________________________________\n",
      "batch_normalization_2 (Batch (None, 14, 14, 64)        256       \n",
      "_________________________________________________________________\n",
      "leaky_re_lu_2 (LeakyReLU)    (None, 14, 14, 64)        0         \n",
      "_________________________________________________________________\n",
      "conv2d_transpose_2 (Conv2DTr (None, 28, 28, 1)         1600      \n",
      "=================================================================\n",
      "Total params: 2,330,944\n",
      "Trainable params: 2,305,472\n",
      "Non-trainable params: 25,472\n",
      "_________________________________________________________________\n"
     ]
    }
   ],
   "source": [
    "g.summary()"
   ]
  },
  {
   "cell_type": "code",
   "execution_count": 11,
   "id": "willing-supplement",
   "metadata": {},
   "outputs": [
    {
     "name": "stdout",
     "output_type": "stream",
     "text": [
      "Model: \"sequential_1\"\n",
      "_________________________________________________________________\n",
      "Layer (type)                 Output Shape              Param #   \n",
      "=================================================================\n",
      "conv2d (Conv2D)              (None, 14, 14, 64)        1664      \n",
      "_________________________________________________________________\n",
      "leaky_re_lu_3 (LeakyReLU)    (None, 14, 14, 64)        0         \n",
      "_________________________________________________________________\n",
      "dropout (Dropout)            (None, 14, 14, 64)        0         \n",
      "_________________________________________________________________\n",
      "conv2d_1 (Conv2D)            (None, 7, 7, 128)         204928    \n",
      "_________________________________________________________________\n",
      "leaky_re_lu_4 (LeakyReLU)    (None, 7, 7, 128)         0         \n",
      "_________________________________________________________________\n",
      "dropout_1 (Dropout)          (None, 7, 7, 128)         0         \n",
      "_________________________________________________________________\n",
      "flatten (Flatten)            (None, 6272)              0         \n",
      "_________________________________________________________________\n",
      "dense_1 (Dense)              (None, 1)                 6273      \n",
      "=================================================================\n",
      "Total params: 212,865\n",
      "Trainable params: 0\n",
      "Non-trainable params: 212,865\n",
      "_________________________________________________________________\n"
     ]
    }
   ],
   "source": [
    "d.summary()"
   ]
  },
  {
   "cell_type": "code",
   "execution_count": 12,
   "id": "literary-context",
…
   "execution_count": 25,
   "id": "lucky-moses",
   "metadata": {},
   "outputs": [
    {
     "name": "stdout",
     "output_type": "stream",
     "text": [
      "Model: \"discriminator\"\n",
      "_________________________________________________________________\n",
      "Layer (type)                 Output Shape              Param #   \n",
      "=================================================================\n",
      "input_2 (InputLayer)         [(None, 28, 28, 1)]       0         \n",
      "_________________________________________________________________\n",
      "zero_padding2d (ZeroPadding2 (None, 32, 32, 1)         0         \n",
      "_________________________________________________________________\n",
      "conv2d_2 (Conv2D)            (None, 16, 16, 64)        1664      \n",
      "_________________________________________________________________\n",
      "leaky_re_lu_5 (LeakyReLU)    (None, 16, 16, 64)        0         \n",
      "_________________________________________________________________\n",
      "dropout_2 (Dropout)          (None, 16, 16, 64)        0         \n",
      "_________________________________________________________________\n",
      "conv2d_3 (Conv2D)            (None, 8, 8, 128)         204928    \n",
      "_________________________________________________________________\n",
      "leaky_re_lu_6 (LeakyReLU)    (None, 8, 8, 128)         0         \n",
      "_________________________________________________________________\n",
      "dropout_3 (Dropout)          (None, 8, 8, 128)         0         \n",
      "_________________________________________________________________\n",
      "conv2d_4 (Conv2D)            (None, 4, 4, 256)         819456    \n",
      "_________________________________________________________________\n",
      "leaky_re_lu_7 (LeakyReLU)    (None, 4, 4, 256)         0         \n",
      "_________________________________________________________________\n",
      "dropout_4 (Dropout)          (None, 4, 4, 256)         0         \n",
      "_________________________________________________________________\n",
      "conv2d_5 (Conv2D)            (None, 2, 2, 512)         3277312   \n",
      "_________________________________________________________________\n",
      "leaky_re_lu_8 (LeakyReLU)    (None, 2, 2, 512)         0         \n",
      "_________________________________________________________________\n",
      "flatten_1 (Flatten)          (None, 2048)              0         \n",
      "_________________________________________________________________\n",
      "dropout_5 (Dropout)          (None, 2048)              0         \n",
      "_________________________________________________________________\n",
      "dense_2 (Dense)              (None, 1)                 2049      \n",
      "=================================================================\n",
      "Total params: 4,305,409\n",
      "Trainable params: 4,305,409\n",
      "Non-trainable params: 0\n",
      "_________________________________________________________________\n"
     ]
    }
   ],
   "source": [
    "def get_discriminator_model():\n",
    "    img_input = tf.keras.layers.Input(shape=IMG_SHAPE)\n",
…
   "execution_count": 26,
   "id": "fancy-negotiation",
   "metadata": {},
   "outputs": [
    {
     "name": "stdout",
     "output_type": "stream",
     "text": [
      "Model: \"generator\"\n",
      "_________________________________________________________________\n",
      "Layer (type)                 Output Shape              Param #   \n",
      "=================================================================\n",
      "input_3 (InputLayer)         [(None, 128)]             0         \n",
      "_________________________________________________________________\n",
      "dense_3 (Dense)              (None, 4096)              524288    \n",
      "_________________________________________________________________\n",
      "batch_normalization_3 (Batch (None, 4096)              16384     \n",
      "_________________________________________________________________\n",
      "leaky_re_lu_9 (LeakyReLU)    (None, 4096)              0         \n",
      "_________________________________________________________________\n",
      "reshape_1 (Reshape)          (None, 4, 4, 256)         0         \n",
      "_________________________________________________________________\n",
      "up_sampling2d (UpSampling2D) (None, 8, 8, 256)         0         \n",
      "_________________________________________________________________\n",
      "conv2d_6 (Conv2D)            (None, 8, 8, 128)         294912    \n",
      "_________________________________________________________________\n",
      "batch_normalization_4 (Batch (None, 8, 8, 128)         512       \n",
      "_________________________________________________________________\n",
      "leaky_re_lu_10 (LeakyReLU)   (None, 8, 8, 128)         0         \n",
      "_________________________________________________________________\n",
      "up_sampling2d_1 (UpSampling2 (None, 16, 16, 128)       0         \n",
      "_________________________________________________________________\n",
      "conv2d_7 (Conv2D)            (None, 16, 16, 64)        73728     \n",
      "_________________________________________________________________\n",
      "batch_normalization_5 (Batch (None, 16, 16, 64)        256       \n",
      "_________________________________________________________________\n",
      "leaky_re_lu_11 (LeakyReLU)   (None, 16, 16, 64)        0         \n",
      "_________________________________________________________________\n",
      "up_sampling2d_2 (UpSampling2 (None, 32, 32, 64)        0         \n",
      "_________________________________________________________________\n",
      "conv2d_8 (Conv2D)            (None, 32, 32, 1)         576       \n",
      "_________________________________________________________________\n",
      "batch_normalization_6 (Batch (None, 32, 32, 1)         4         \n",
      "_________________________________________________________________\n",
      "activation (Activation)      (None, 32, 32, 1)         0         \n",
      "_________________________________________________________________\n",
      "cropping2d (Cropping2D)      (None, 28, 28, 1)         0         \n",
      "=================================================================\n",
      "Total params: 910,660\n",
      "Trainable params: 902,082\n",
      "Non-trainable params: 8,578\n",
      "_________________________________________________________________\n"
     ]
    }
   ],
   "source": [
    "def get_generator_model():\n",
    "    noise = tf.keras.layers.Input(shape=(noise_dim,))\n",
…
